…
              &lt;span class="n"&gt;metrics&lt;/span&gt;&lt;span class="o"&gt;=&lt;/span&gt;&lt;span class="p"&gt;[&lt;/span&gt;&lt;span class="s1"&gt;'accuracy'&lt;/span&gt;&lt;span class="p"&gt;])&lt;/span&gt;
&lt;/pre&gt;
&lt;pre class="code ipython3 literal-block"&gt;
&lt;span class="n"&gt;model&lt;/span&gt;&lt;span class="o"&gt;.&lt;/span&gt;&lt;span class="n"&gt;summary&lt;/span&gt;&lt;span class="p"&gt;()&lt;/span&gt;
&lt;/pre&gt;
&lt;pre class="literal-block"&gt;
Model: &amp;quot;sequential&amp;quot;
_________________________________________________________________
Layer (type)                 Output Shape              Param #
=================================================================
rescaling_2 (Rescaling)      (None, 180, 180, 3)       0
_________________________________________________________________
conv2d_6 (Conv2D)            (None, 180, 180, 16)      448
_________________________________________________________________
max_pooling2d_6 (MaxPooling2 (None, 90, 90, 16)        0
_________________________________________________________________
conv2d_7 (Conv2D)            (None, 90, 90, 32)        4640
_________________________________________________________________
max_pooling2d_7 (MaxPooling2 (None, 45, 45, 32)        0
_________________________________________________________________
conv2d_8 (Conv2D)            (None, 45, 45, 64)        18496
_________________________________________________________________
max_pooling2d_8 (MaxPooling2 (None, 22, 22, 64)        0
_________________________________________________________________
flatten_2 (Flatten)          (None, 30976)             0
_________________________________________________________________
dense_4 (Dense)              (None, 128)               3965056
_________________________________________________________________
dense_5 (Dense)              (None, 3)                 387
=================================================================
Total params: 3,989,027
Trainable params: 3,989,027
Non-trainable params: 0
_________________________________________________________________
&lt;/pre&gt;
&lt;p&gt;&lt;strong&gt;tf.keras.Sequential&lt;/strong&gt; groups a linear stack of layers. The first layer is used to normalize our
image data. Subsequent layers are comprised of &lt;em&gt;convolution layer&lt;/em&gt;, &lt;em&gt;pooling layer&lt;/em&gt;, &lt;em&gt;flatten layer&lt;/em&gt; and
…
